backend/models/nba_model.pt (torch, 15149 bytes, 6 tensors)

net.0.weight f4 [64, 9]
0.38370696 0.24332802 0.07252776 -0.1337275 -0.23292348 0.19769177 -0.2045891 -0.2759629
-0.19561188 0.30211818 -0.41331902 0.13076638 0.18561009 -0.03255724 -0.48317108 -0.066335
-0.2058769 -0.14392489 -0.10687849 -0.15884462 -0.2749994 0.19801189 -0.102218874 -0.23444755
-0.2952593 0.22777267 0.24531402 0.25966159 0.20126309 -0.31446764 0.14406893 -0.1973793
-0.27571815 -0.14332817 -0.29878306 -0.14616354 -0.13436884 0.05525692 0.28885183 0.10959469
0.028124312 0.23642766 0.039794702 0.0021711644 0.08180788 -0.12480016 0.33651516 0.22646703
-0.07013731 -0.06417284 0.092227116 -0.054194387 -0.03609741 0.4706895 0.061725494 -0.25021818
0.03308218 0.31697685 -0.31877685 0.2160893 -0.0035062241 0.27618873 -0.2795901 -0.21677245
0.12187571 -0.010669363 0.32356638 -0.29961148 -0.4573208 0.25106624 0.17555761 0.08979333
-0.25355488 -0.30168393 0.26224026 0.18598872 0.17359188 -0.08336723 -0.112284265 0.4425819
0.08347809 -0.3440623 0.17196657 0.030436654 -0.17389102 -0.40039656 -0.17740631 0.07104648
0.3543298 0.32370135 -0.25237003 0.40645796 0.047000237 0.0032499803 -0.16798712 0.0996503
0.3519538 0.31372017 0.008862192 0.17029259 -0.12398148 0.39475536 0.0853825 0.01004249
-0.056491345 0.14739066 -0.16660291 -0.04595816 0.023833917 -0.011595839 0.45185465 0.13488811
-0.2564927 -0.16028307 0.27220723 -0.31976664 0.23800328 -0.09785588 -0.27476883 -0.15562731
-0.20786084 -0.08392657 0.22508006 0.02243283 0.030632328 0.42748943 -0.39656264 -0.28324443
0.37462214 0.07685193 0.04523609 -0.1862522 -0.17542794 -0.31240714 0.0015970032 0.36931884
0.22867276 0.27719527 -0.011461468 -0.13250963 -0.34934944 0.28305313 0.27261743 -0.036008816
-0.23426889 -0.38587037 0.028731473 -0.04350984 -0.021294693 -0.2835947 0.04357366 0.28795615
-0.12443558 -0.082182944 0.045106493 0.26414073 -0.24685155 -0.21746376 0.22663784 -0.15363534
0.2505164 -0.035422992 0.28124285 -0.026169144 -0.1496623 -0.14132051 0.112435356 0.09444694
-0.3010962 -0.09463726 0.19787036 -0.13257295 0.19412185 -0.3871679 -0.24203214 0.20015419
-0.31677374 0.16336058 0.20995773 0.11114066 -0.03155269 0.3216666 0.11215367 0.25586155
0.31037143 -0.07356026 -0.28926703 -0.27055654 -0.31344387 0.231861 0.018076029 0.27418366
0.2509979 0.10913696 0.2440134 -0.05799003 0.009709393 0.22411546 0.34655705 -0.2241774
0.0073213032 -0.27637392 0.26485276 0.19332317 -0.22323327 0.047904953 -0.2088543 -0.021499125
-0.1752931 0.32534927 0.2690399 0.17014858 0.16480209 0.057496138 0.1351806 0.10328905
-0.10591732 -0.073006414 -0.112532064 -0.080190815 -0.14830661 0.35007882 0.021689927 -0.19720188
-0.016330276 0.24117695 -0.24957892 -0.3509032 0.011177903 0.31778616 -0.035908487 0.046601955
0.2167044 0.046162672 -0.59461987 0.21878971 0.103707306 0.13481523 -0.29391286 0.12829049
-0.06293278 0.068709485 0.09592106 0.25380594 0.19721687 -0.2892227 0.21597679 0.12617342
0.17269765 0.2989955 -0.31894577 0.0020732684 -0.035715718 -0.20120962 -0.32968605 0.19614968
00000000: 3d75 c43e fb2a 793e 6f89 943d ddef 08be
00000010: 7e83 6ebe b66f 4a3e ce7f 51be 024b 8dbe
00000020: 7b4e 48be 3caf 9a3e 8d9e d3be 9fe7 053e
00000030: 9210 3e3e be5a 05bd 3362 f7be a5da 87bd
00000040: 65d1 52be 0c61 13be 1ce3 dabd 2aa8 22be
00000050: b9cc 8cbe a1c3 4a3e 2158 d1bd 0513 70be
00000060: 3a2c 97be 3d3d 693e 9933 7b3e 5df2 843e
00000070: e917 4e3e e701 a1be ce86 133e cd1d 4abe
00000080: ee2a 8dbe 9fc4 12be 18fa 98be e5ab 15be
00000090: fc97 09be 1555 623d 63e4 933e 2e73 e03d
000000a0: f564 e63c 181a 723e c5ff 223d 184a 0e3b
000000b0: e48a a73d 3a97 ffbd b74b ac3e f9e6 673e
000000c0: 26a4 8fbd 0d6d 83bd 92e1 bc3d effa 5dbd
000000d0: e1da 13bd 37fe f03e dfd3 7c3d 991c 80be
000000e0: 2e81 073d ca4a a23e b836 a3be 8346 5d3e
000000f0: aec8 65bb 9c68 8d3e 6f26 8fbe 99f9 5dbe
00000100: f999 f93d 8dce 2ebc 7eaa a53e ad66 99be
00000110: f425 eabe c18b 803e 60c5 333e 91e5 b73d
00000120: f2d1 81be 5176 9abe 5b44 863e d473 3e3e
00000130: 12c2 313e 70bc aabd 4bf5 e5bd 189a e23e
00000140: 90f6 aa3d ef28 b0be 0118 303e 4a56 f93c
00000150: 7d10 32be c700 cdbe 00aa 35be d180 913d
00000160: b76a b53e 2fbc a53e a536 81be 421b d03e
00000170: 5283 403d 9ffd 543b d104 2cbe 7515 cc3d
00000180: 4a33 b43e ee9f a03e ba32 113c 2e61 2e3e
00000190: 01ea fdbd 601d ca3e 05dd ae3d 4289 243c
000001a0: 7863 67bd 94ed 163e f499 2abe a03e 3cbd
000001b0: 593f c33c 79fc 3dbc 7e59 e73e 1c20 0a3e
000001c0: 0353 83be 3f21 24be bf5e 8b3e 74b8 a3be
000001d0: 22b7 733e aa68 c8bd 80ae 8cbe c45c 1fbe
000001e0: 79d9 54be b2e1 abbd 637b 663e 0ec5 b73c
000001f0: a6f0 fa3c e5df da3e 420a cbbe 6a05 91be
00000200: 79ce bf3e 8b64 9d3d 7a49 393d e6b8 3ebe
00000210: 62a3 33be d4f3 9fbe 8952 d13a 5c17 bd3e
00000220: 3129 6a3e 8aec 8d3e e2c8 3bbc 9bb0 07be
00000230: eedd b2be 57ec 903e 8394 8b3e fb7d 13bd
00000240: 2fe4 6fbe cd90 c5be 445e eb3c 6037 32bd
00000250: 3572 aebc 5333 91be 4b7a 323d fd6e 933e
00000260: 15d8 febd 884f a8bd 96c1 383d 743d 873e
00000270: a7c6 7cbe d2ae 5ebe c013 683e 9552 1dbe
00000280: b043 803e b317 11bd 10ff 8f3e ac60 d6bc
00000290: 1341 19be 53b6 10be 8244 e63d 666d c13d
000002a0: 4829 9abe 2ed1 c1bd 879e 4a3e 34c1 07be
000002b0: e1c7 463e df3a c6be 46d7 77be 38f5 4c3e
000002c0: 2b30 a2be ff47 273e 29ff 563e b79d e33d
000002d0: 653d 01bd 7cb1 a43e d3b0 e53d 4900 833e
000002e0: 01e9 9e3e c3a6 96bd cf1a 94be 6386 8abe
000002f0: b77b a0be f86c 6d3e 2e14 943c cd61 8c3e
00000300: cc82 803e 3383 df3d a6de 793e f486 6dbd
00000310: 2514 1f3c 867e 653e ed6f b13e c38e 65be
00000320: 8be7 ef3b e280 8dbe c89a 873e 82f6 453e
00000330: 4397 64be fc37 443d e7dd 55be ef1e b0bc
00000340: 0980 33be 2e94 a63e 99bf 893e 6e3b 2e3e
00000350: e1c1 283e 1281 6b3d c96c 0a3e 3689 d33d
00000360: 2eeb d8bd 6384 95bd 3677 e6bd 153b a4bd
00000370: b0dd 17be 883d b33e 13af b13c 4aef 49be
00000380: 12c7 85bc 17f7 763e 9e91 7fbe 96a9 b3be
00000390: 8623 373c deb4 a23e c714 13bd b1e1 3e3d
000003a0: c2e7 5d3e 1215 3d3d 0239 18bf 690a 603e
000003b0: 7f64 d43d 010d 0a3e bf7b 96be 955e 033e
000003c0: e7e2 80bd 8fb7 8c3d 4372 c43d daf2 813e
000003d0: 38f3 493e ff14 94be 0529 5d3e 9b33 013e
000003e0: a7d7 303e f015 993e dc4c a3be acdf 073b
000003f0: a54a 12bd e509 4ebe 9ccc a8be 76db 483e

net.0.bias f4 [64]
0.1497414 -0.110261664 -0.3283452 -0.0030119605 -0.21902078 -0.073528945 0.109513775 -0.13390207
0.13007618 0.3282599 -0.05457565 0.047661316 -0.17996715 0.13212277 0.06645382 -0.107859686
-0.11729839 -0.049251568 0.19226031 -0.22772445 -0.13459489 0.02508175 -0.013268115 -0.3042407
0.02128039 -0.10140032 -0.05449094 0.17321497 0.3563101 -0.07038401 -0.08371343 -0.1301919
-0.1205342 0.031182315 0.19010417 0.122268215 0.0944024 -0.06484916 0.026219932 -0.13729776
-0.06070285 -0.2727627 0.12979403 -0.28283513 -0.08041191 -0.12046284 -0.0055313613 -0.047572404
-0.12472247 0.035827436 -0.26735824 0.289311 0.121306635 -0.17997201 0.045069557 -0.1278158
0.2634941 -0.014831008 -0.050784353 -0.16733496 0.02238821 0.21389279 0.07203536 0.3197991
00000000: cf55 193e ded0 e1bd dd1c a8be 5064 45bb
00000010: fc46 60be 5896 96bd c248 e03d a01d 09be
00000020: b132 053e ae11 a83e b78a 5fbd 8338 433d
00000030: 4f49 38be 314b 073e f118 883d 8ae5 dcbd
00000040: 233a f0bd 03bc 49bd e3df 443e 9930 69be
00000050: 3ed3 09be 3e78 cd3c 8262 59bc 70c5 9bbe
00000060: 3654 ae3c f9aa cfbd e431 5fbd 445f 313e
00000070: 476e b63e 7e25 90bd f271 abbd 0751 05be
00000080: a2da f6bd 0e72 ff3c abaa 423e c267 fa3d
00000090: 0c56 c13d a3cf 84bd 2fcb d63c c997 0cbe
000000a0: 8da3 78bd 8da7 8bbe bae8 043e c4cf 90be
000000b0: 00af a4bd 39b5 f6bd 6c40 b5bb 48db 42bd
000000c0: 7f6e ffbd cabf 123d 2ee3 88be 9220 943e
000000d0: 9d6f f83d 954a 38be db9a 383d 25e2 02be
000000e0: b3e8 863e c2fd 72bc 4103 50bd db59 2bbe
000000f0: 7b67 b73c b606 5b3e 4687 933d b5bc a33e

net.2.weight f4 [32, 64]
0.070271604 -0.14454255 0.15046768 0.048224002 -0.22679938 -0.31066337 -0.013757827 0.023411546
0.09340262 -0.10914817 -0.048146605 -0.0051217917 0.013521378 0.16956812 0.15127735 0.069796756
0.16531825 0.012800047 0.025688397 -0.10344054 0.010139077 -0.14607547 0.05900707 -0.070008524
0.045160435 0.10868856 -0.038674682 0.0036575422 0.12887624 0.14461496 0.07614616 -0.082835235
-0.36095995 0.06728043 0.06255099 -0.106590845 0.17935514 0.05075722 -0.08563713 0.14991342
0.2452095 -0.09496858 0.097074285 -0.21125615 0.23526125 0.23425323 0.13709554 -0.11112733
0.09523075 -0.05795331 0.13223709 -0.00046416 -0.004024789 0.026041163 0.06832683 0.05377451
0.02657356 0.19260953 0.20217763 -0.06999515 0.095430784 0.13965334 -0.15740134 0.015210451
0.1440747 -0.17597528 -0.065055825 0.010428879 0.16721997 0.23199266 0.08670446 -0.083740786
-0.039724883 -0.09631738 0.090339825 0.0019613062 -0.07995942 0.077130035 0.11747467 -0.06896033
-0.21202286 0.024541672 0.1835437 0.05279241 0.1227201 0.032295734 0.030918783 0.09203242
0.16468762 -0.22295421 0.10552611 0.26001498 -0.097162835 -0.05431273 -0.022467896 -0.023771275
0.05899911 0.10214685 0.03302971 0.034445614 0.055692732 -0.22593725 0.021762447 -0.18890727
0.06365725 -0.14566818 0.11606853 0.010633603 0.16320112 0.0017187551 -0.30114302 -0.07905972
0.21104139 0.17288074 0.20064875 -0.10206241 -0.1764677 0.2064884 -0.06753375 0.03247664
-0.14896521 0.07452632 0.15776841 0.23620786 -0.069196254 0.039565336 0.21585387 0.06914643
0.15187067 0.14226486 0.1265756 0.070540056 0.007205453 0.16041362 0.013839207 -0.075710334
-0.0058202758 -0.013143933 -0.09531182 0.024141282 0.016469907 0.15637618 0.25306615 -0.08712247
0.08987051 -0.08549442 0.24497186 -0.095618874 0.019549392 0.06439612 0.060474228 0.014532814
0.1551209 -0.02009784 0.16986638 0.10697357 -0.009797343 0.008296683 0.28235444 0.043470345
0.04560134 -0.08118534 -0.096254885 0.060854826 -0.016758502 -0.061014198 -0.07968853 0.012453951
0.08662214 0.014464942 0.08821855 0.1692872 0.31691 0.08519207 0.16134393 0.18920147
0.21112376 0.15469497 0.077142805 -0.014213974 -0.018058196 -0.1087539 0.26941645 0.021790508
-0.072843015 -0.042796005 0.05264304 -0.18217212 -0.0002040251 0.16422902 0.024273962 -0.030505579
0.27285427 0.121150054 0.077525735 0.075579196 -0.13213573 -0.035548475 -0.019255517 -0.028656844
-0.2107379 0.0840027 0.013570445 -0.11383003 0.10392051 0.19868504 0.01974196 0.2367164
-0.00742079 0.15013911 0.049434535 0.060631596 -0.20336124 0.03107877 0.032548875 -0.14008057
0.007827498 0.101555616 0.1390704 0.064169444 -0.1312732 -0.008496541 -0.046102077 -0.020562155
0.12370664 0.04170854 0.28719115 -0.09905986 0.13396898 0.045209743 0.02449735 -0.0042051524
0.068851866 0.035753448 -0.1285944 -0.103212185 -0.14657529 0.015063034 0.07966733 0.13568546
0.17724434 -0.2581117 0.0046047205 -0.0703293 0.08531613 0.06703649 0.099581845 0.45074707
0.069395185 0.26354063 0.08168746 0.18322724 0.08262681 -0.15089412 0.004247914 0.014549239
00000000: 8fea 8f3d f602 14be 3314 1a3e 8886 453d
00000010: 193e 68be 450f 9fbe 8268 61bc 92c9 bf3c
00000020: df49 bf3d 1389 dfbd 6035 45bd b4d4 a7bb
00000030: c588 5d3c 44a3 2d3e 73e8 1a3e 9af1 8e3d
00000040: 3049 293e 4ab7 513c 7970 d23c a2d8 d3bd
00000050: 5f1e 263c cf94 15be 66b1 713d a160 8fbd
00000060: 26fa 383d 1c98 de3d 5869 1ebd 60b3 6f3b
00000070: 22f8 033e f215 143e 85f2 9b3d 85a5 a9bd
00000080: becf b8be 52ca 893d bc1a 803d 4d4c dabd
00000090: e0a8 373e cde6 4f3d 8562 afbd e782 193e
000000a0: 3318 7b3e e37e c2bd e2ce c63d 8853 58be
000000b0: 53e8 703e 14e0 6f3e c662 0c3e ba96 e3bd
000000c0: 5708 c33d 7360 6dbd 2969 073e 805a f3b9
000000d0: 61e2 83bb 4754 d53c f0ee 8b3d a942 5c3d
000000e0: cbb0 d93c 6f3b 453e a707 4f3e 9e59 8fbd
000000f0: 3771 c33d 4901 0f3e d12d 21be 4135 793c
00000100: 5188 133e dd32 34be fd3b 85bd e4dd 2a3c
00000110: b63b 2b3e 7c8f 6d3e 1c92 b13d 4a80 abbd
00000120: 8fb6 22bd 0c42 c5bd 1604 b93d 4289 003b
00000130: c4c1 a3bd 5af6 9d3d 8f96 f03d 133b 8dbd
00000140: 851c 59be 9e0b c93c e1f2 3b3e db3c 583d
00000150: ad54 fb3d 8848 043d 6349 fd3c 7e7b bc3d
00000160: dfa3 283e 1c4e 64be 131e d83d af20 853e
00000170: 4ffd c6bd 0677 5ebd 980e b8bc fabb c2bc
00000180: 0da9 713d 5e32 d13d 294a 073d d816 0d3d
00000190: 101e 643d 185c 67be 2947 b23c e870 41be
000001a0: bb5e 823d 0a2a 15be 56b5 ed3d 9038 2e3c
000001b0: 321e 273e da47 e13a 6b2f 9abe 10ea a1bd
000001c0: 3c1b 583e a607 313e de76 4d3e 1906 d1bd
000001d0: f3b3 34be b271 533e 224f 8abd 3a06 053d
000001e0: 568a 18be 41a1 983d 0b8e 213e 79e0 713e
000001f0: c4b6 8dbd 430f 223d cc08 5d3e a59c 8d3d
00000200: fc83 1b3e e1ad 113e 099d 013e 4e77 903d
00000210: b81b ec3b 7843 243e d7bd 623c 050e 9bbd
00000220: 03b8 bebb a759 57bc d832 c3bd f0c3 c53c
00000230: e6eb 863c 1421 203e e391 813e 446d b2bd
00000240: 080e b83d b317 afbd e7d9 7a3e d4d3 c3bd
00000250: 0c26 a03c 1de2 833d d3b3 773d 0a1b 6e3c
00000260: 03d8 1e3e 3aa4 a4bc 74f1 2d3e f614 db3d
00000270: 0985 20bc d0ee 073c c390 903e f60d 323d
00000280: 78c8 3a3d 8044 a6bd 4821 c5bd e942 793d
00000290: 2049 89bc 06ea 79bd bd33 a3bd a80b 4c3c
000002a0: f366 b13d 5dfe 6c3c edab b43d a059 2d3e
000002b0: 0742 a23e 2e79 ae3d 5837 253e 08be 413e
000002c0: d430 583e 5c68 1e3e 0cfd 9d3d bae1 68bc
000002d0: c8ee 93bc 5dba debd f4f0 893e 0282 b23c
000002e0: b82e 95bd dd4a 2fbd 3aa0 573d 548b 3abe
000002f0: 92ef 55b9 a72b 283e 30da c63c d6e6 f9bc
00000300: 8eb3 8b3e 851d f83d d0c5 9e3d 44c9 9a3d
00000310: 974e 07be 479b 11bd bfbd 9dbc c2c1 eabc
00000320: adcb 57be 9c09 ac3d 9256 5e3c b81f e9bd
00000330: 47d4 d43d 1774 4b3e e4b9 a13c c965 723e
00000340: 192a f3bb 11be 193e de7b 4a3d d658 783d
00000350: ee3d 50be e898 fe3c f851 053d 4871 0fbe
00000360: e83e 003c 64fc cf3d 7968 0e3e 456b 833d
00000370: 7b6c 06be 1335 0bbc 88d5 3cbd f771 a8bc
00000380: e859 fd3d 93d6 2a3d b80a 933e e5df cabd
00000390: 2a2f 093e da2d 393d abae c83c 60cb 89bb
000003a0: 3502 8d3d 3572 123d 40ae 03be e960 d3bd
000003b0: d517 16be f2ca 763c a028 a33d 21f1 0a3e
000003c0: 8a7f 353e 3727 84be 32e3 963b cf08 90bd
000003d0: 39ba ae3d 6d4a 893d 91f1 cb3d 52c8 e63e
000003e0: 101f 8e3d ccee 863e c14b a73d ec9f 3b3e
000003f0: 3f38 a93d fd83 1abe 1632 8b3b ee5f 6e3c

net.2.bias f4 [32]
0.024449416 0.12532638 0.13467623 0.16697113 -0.050952956 0.11447018 0.0236162 0.11843763
0.1261103 0.06651088 0.15964949 0.11410459 -0.06216297 0.0006662678 0.003389535 0.014150287
-0.009879127 0.079796925 -0.13613762 0.02219777 0.09381231 0.05062966 -0.017462006 0.19168581
0.10283038 0.015918441 0.08818409 0.10187624 -0.01388155 0.14325775 0.03136172 0.08208236
00000000: 244a c83c 8f55 003e 91e8 093e 7bfa 2a3e
00000010: 0cb4 50bd 576f ea3d c376 c13c 6e8f f23d
00000020: 0f23 013e db36 883d 287b 233e abaf e93d
00000030: 999e 7ebd 7aa8 2e3a f622 5e3b 9bd6 673c
00000040: 10dc 21bc 926c a33d a967 0bbe 19d8 b53c
00000050: ab20 c03d 0c61 4f3d 7b0c 8fbc 4949 443e
00000060: bc98 d23d 6467 823c dc99 b43d 7da4 d03d
00000070: 716f 63bc 29b2 123e 2675 003d cc1a a83d

net.4.weight f4 [9, 32]
-0.17042606 -0.0049723717 -0.14931628 0.19092509 0.09281103 -0.049515605 0.039432008 0.011305295
-0.17528296 0.04328485 -0.25546926 -0.13774551 0.14655298 -0.10072277 0.06749573 0.19444609
-0.15849695 -0.025374174 -0.08940647 -0.15800332 -0.090830415 0.2787038 -0.036997035 -0.13382289
0.058140185 -0.021605473 0.16454022 0.22790241 -0.110962115 -0.21075588 -0.089489944 0.21706842
-0.1478862 0.20631503 -0.18602319 -0.023668058 0.20568846 0.01553879 -0.18504363 -0.26197356
-0.03487075 -0.13028619 -0.051252022 -0.092000894 0.29429507 -0.07086348 -0.1791107 -0.09200214
-0.05923596 0.051293902 0.16102819 0.0051550083 0.08410015 0.005838193 0.17342383 0.18468589
-0.022168262 -0.15564322 -0.050634004 0.047060575 0.18710819 0.07065196 -0.0977463 0.26740724
-0.13484058 0.02910624 -0.02125628 0.086485304 -0.097810455 -0.26137707 0.14019912 0.041748658
-0.059979856 0.24448712 0.19283696 0.111972615 0.099140644 -0.09383334 -0.19730276 -0.14582469
0.022150734 0.19842611 -0.04591929 -0.13661994 0.15268426 -0.19129719 0.06488935 -0.19000374
0.06555276 -0.023554467 0.25933215 -0.11188879 -0.071987495 -0.08981849 -0.15454997 0.17645144
-0.12210518 -0.2514278 0.09715727 -0.255066 0.13610154 -0.27545574 -0.09948046 0.04238762
0.14598624 0.11760137 0.007484355 -0.1259203 0.089294694 0.16184601 0.020890143 0.18242627
-0.1556034 0.18022262 0.30020767 0.019702697 -0.09241493 0.072269514 0.0903758 -0.14316815
-0.11721504 -0.197982 0.070225425 -0.02408764 0.03149837 0.1613393 -0.004322271 0.05617259
-0.04154308 0.085184515 0.030529954 -0.19321474 0.20645149 -0.09233136 0.05958903 -0.07765424
-0.14676815 0.1988471 -0.16573562 -0.13539277 0.123713315 -0.13113745 0.26216987 -0.06770257
0.15745746 -0.1130022 -0.27289397 -0.13058694 0.10048039 -0.028785242 -0.081643395 -0.07299475
0.14658977 -0.16075121 0.009172843 0.09684113 -0.013408438 0.051912937 -0.15574154 0.08146295
-0.087737784 0.19630478 0.10428305 -0.025027024 0.039851807 -0.17437471 -0.109836504 0.24372208
0.09797785 -0.0064839926 0.05619564 -0.118374094 -0.017206792 0.09011875 -0.06419308 -0.16372454
-0.12831353 -0.029601745 -0.039760858 0.040526953 -0.16605215 0.016660852 -0.15326045 0.031121062
0.22233832 0.11743852 0.19803225 -0.06510965 0.19185784 -0.08434458 -0.23945676 0.021818064
-0.06768111 -0.0063022478 -0.20850392 -0.03998565 -0.22254469 -0.017634215 0.008130634 0.06610489
-0.07359156 -0.0007431305 -0.005185562 0.1298711 0.2125566 -0.121099986 0.14663371 0.16608734
-0.20905621 0.16230577 -0.15241289 0.03176089 -0.06769344 -0.12977922 -0.032305256 -0.03210595
0.20716786 0.18036027 -0.08321848 0.05212394 0.096742876 0.2296855 -0.13807316 -0.06931615
-0.039586492 -0.17669009 -0.22028066 -0.067338295 0.21011637 0.02738189 0.16318211 0.0044896607
0.20793216 -0.05054809 -0.1100492 -0.18614897 0.118037455 0.16315936 0.06815068 -0.09562151
-0.033347588 0.19691992 0.25516567 -0.22285289 0.0019150764 -0.17283618 -0.05408263 0.06787881
0.11427351 0.013747715 0.028886477 0.17277469 -0.03532628 -0.19831541 -0.04693499 0.027615177
00000000: 2b84 2ebe 47ef a2bb 5ee6 18be de81 433e
00000010: b613 be3d e0d0 4abd 7583 213d d839 393c
00000020: 607d 33be 744b 313d decc 82be 290d 0dbe
00000030: fc11 163e bd47 cebd 343b 8a3d e01c 473e
00000040: 064d 22be 80dd cfbc bd1a b7bd 9fcb 21be
00000050: 4c05 babd 44b2 8e3e 348a 17bd de08 09be
00000060: 6724 6e3d f6fd b0bc 3b7d 283e 405f 693e
00000070: 1b40 e3bd 64d0 57be 8146 b7bd 2f47 5e3e
00000080: 7b6f 17be 3f44 533e dd7c 3ebe 84e3 c1bc
00000090: ff9f 523e 6996 7e3c 147c 3dbe 6621 86be
000000a0: a2d4 0ebd be69 05be a4ed 51bd f76a bcbd
000000b0: d8ad 963e df20 91bd cc68 37be 9e6b bcbd
000000c0: 68a1 72bd 8e19 523d 93e4 243e 58eb a83b
000000d0: b33c ac3d 504e bf3b 0496 313e 4c1e 3d3e
000000e0: 379a b5bc f060 1fbe 9a65 4fbd 97c2 403d
000000f0: 4a99 3f3e fab1 903d 362f c8bd 9ae9 883e
00000100: a613 0abe 3670 ee3c a621 aebc 351f b13d
00000110: d950 c8bd 37d3 85be 5c90 0f3e a400 2b3d
00000120: 70ad 75bd d55a 7a3e 0d77 453e e651 e53d
00000130: 400a cb3d b22b c0bd bc09 4abe 1153 15be
00000140: 7575 b53c 3730 4b3e de15 3cbd 19e6 0bbe
00000150: 4359 1c3e 69e3 43be b5e4 843d 5790 42be
00000160: 8740 863d 4cf5 c0bc 2fc7 843e f325 e5bd
00000170: 2e6e 93bd c2f2 b7bd 5942 1ebe b0af 343e
00000180: 4812 fabd 25bb 80be 64fa c63d 0398 82be
00000190: 345e 0b3e 8908 8dbe 69bc cbbd a49e 2d3d
000001a0: 6b7d 153e fdd8 f03d 523f f53b 40f1 00be
000001b0: 23e0 b63d f6ba 253e ce21 ab3c f4cd 3a3e
000001c0: 7f56 1fbe 478c 383e d2b4 993e 8d67 a13c
000001d0: 0a44 bdbd 0a02 943d f316 b93d ac9a 12be
000001e0: 700e f0bd cbbb 4abe 59d2 8f3d 7153 c5bc
000001f0: 6f04 013d 2136 253e d6a1 8dbb 3b15 663d
00000200: 1429 2abd 3875 ae3d f419 fa3c 16da 45be
00000210: 0568 533e 3918 bdbd a013 743d 3009 9fbd
00000220: 644a 16be 939e 4b3e 99b6 29be 67a4 0abe
00000230: 685d fd3d e548 06be 213b 863e a5a7 8abd
00000240: 873c 213e b36d e7bd c2b8 8bbe 95b8 05be
00000250: aac8 cd3d 07cf ebbc a734 a7bd 467e 95bd
00000260: a11b 163e f79b 24be b149 163c a454 c63d
00000270: 11af 5bbc a9a2 543d b67a 1fbe 0cd6 a63d
00000280: deaf b3bd 1f04 493e 5a92 d53d 7905 cdbc
00000290: a63b 233d 498f 32be f6f1 e0bd 4892 793e
000002a0: 9ca8 c83d ac77 d4bb 662d 663d 1e6e f2bd
000002b0: 42f5 8cbc 2e90 b83d a977 83bd 68a7 27be
000002c0: 9f64 03be 5c7f f2bc 48dc 22bd 97ff 253d
000002d0: 9309 2abe 577c 883c 4ff0 1cbe 99f1 fe3c
000002e0: a8ac 633e 9b83 f03d f7c8 4a3e 3558 85bd
000002f0: 6276 443e dabc acbd 2734 75be ccbb b23c
00000300: 659c 8abd 1683 cebb 0d82 55be fec7 23bd
00000310: c1e2 63be a175 90bc 5a36 053c 0062 873d
00000320: 2cb7 96bd a5ce 42ba a6eb a9bb eefc 043e
00000330: 70a8 593e 4503 f8bd 2627 163e cd12 2a3e
00000340: d512 56be 7c33 263e 2012 1cbe b517 023d
00000350: dca2 8abd d8e4 04be 8452 04bd 8781 03bd
00000360: d023 543e 5db0 383e 736e aabd ea7f 553d
00000370: 2121 c63d ad32 6b3e 0d63 0dbe a0f5 8dbd
00000380: 7225 22bd 3fee 34be 4191 61be a9e8 89bd
00000390: bf28 573e fc4f e03c 3619 273e 011e 933b
000003a0: 2bec 543e 840b 4fbd 7a61 e1bd d69d 3ebe
000003b0: 9fbd f13d 3f13 273e 9592 8b3d 36d5 c3bd
000003c0: 7b97 08bd 60a5 493e 13a5 823e 8c33 64be
000003d0: 4d03 fb3a f8fb 30be bf85 5dbd 0c04 8b3d
000003e0: 3b08 ea3d 193e 613c 55a3 ec3c d9eb 303e
000003f0: 4ab2 10bd 3213 4bbe e73e 40bd 3939 e23c

net.4.bias f4 [9]
0.04503377 0.05996343 0.02031863 -0.08855715 0.02958014 -0.10725442 0.0009632919 -0.0051693516
0.10219411
00000000: 5575 383d 379c 753d 4173 a63c 735d b5bd
00000010: 0d52 f23c 35a8 dbbd 6d85 7c3a aa63 a9bb
00000020: 254b d13d
